{"format": "torch", "nodes": [{"name": "rpn", "id": 139912451181312, "class_name": "RPN(\n  (backbone_net): Pointnet2MSG(\n    (SA_modules): ModuleList(\n      (0): PointnetSAModuleMSG(\n        (groupers): ModuleList(\n          (0): QueryAndGroup()\n          (1): QueryAndGroup()\n        )\n        (mlps): ModuleList(\n          (0): SharedMLP(\n            (layer0): Conv2d(\n              (conv): Conv2d(3, 16, kernel_size=(1, 1), stride=(1, 1), bias=False)\n              (bn): BatchNorm2d(\n                (bn): BatchNorm2d(16, eps=1e-05, momentum=0.1, affine=True, track_running_stats=True)\n              )\n              (activation): ReLU(inplace)\n            )\n            (layer1): Conv2d(\n              (conv): Conv2d(16, 16, kernel_size=(1, 1), stride=(1, 1), bias=False)\n              (bn): BatchNorm2d(\n                (bn): BatchNorm2d(16, eps=1e-05, momentum=0.1, affine=True, track_running_stats=True)\n              )\n              (activation): ReLU(inplace)\n            )\n            (layer2): Conv2d(\n              (conv): Conv2d(16, 32, kernel_size=(1, 1), stride=(1, 1), bias=False)\n              (bn): BatchNorm2d(\n                (bn): BatchNorm2d(32, eps=1e-05, momentum=0.1, affine=True, track_running_stats=True)\n              )\n              (activation): ReLU(inplace)\n            )\n          )\n          (1): SharedMLP(\n            (layer0): Conv2d(\n              (conv): Conv2d(3, 32, kernel_size=(1, 1), stride=(1, 1), bias=False)\n              (bn): BatchNorm2d(\n                (bn): BatchNorm2d(32, eps=1e-05, momentum=0.1, affine=True, track_running_stats=True)\n              )\n              (activation): ReLU(inplace)\n            )\n            (layer1): Conv2d(\n              (conv): Conv2d(32, 32, kernel_size=(1, 1), stride=(1, 1), bias=False)\n              (bn): BatchNorm2d(\n                (bn): BatchNorm2d(32, eps=1e-05, momentum=0.1, affine=True, track_running_stats=True)\n              )\n              (activation): ReLU(inplace)\n            )\n            (layer2): Conv2d(\n              (conv): Conv2d(32, 64, kernel_size=(1, 1), stride=(1, 1), bias=False)\n              (bn): BatchNorm2d(\n                (bn): BatchNorm2d(64, eps=1e-05, momentum=0.1, affine=True, track_running_stats=True)\n              )\n              (activation): ReLU(inplace)\n            )\n          )\n        )\n      )\n      (1): PointnetSAModuleMSG(\n        (groupers): ModuleList(\n          (0): QueryAndGroup()\n          (1): QueryAndGroup()\n        )\n        (mlps): ModuleList(\n          (0): SharedMLP(\n            (layer0): Conv2d(\n              (conv): Conv2d(99, 64, kernel_size=(1, 1), stride=(1, 1), bias=False)\n              (bn): BatchNorm2d(\n                (bn): BatchNorm2d(64, eps=1e-05, momentum=0.1, affine=True, track_running_stats=True)\n              )\n              (activation): ReLU(inplace)\n            )\n            (layer1): Conv2d(\n              (conv): Conv2d(64, 64, kernel_size=(1, 1), stride=(1, 1), bias=False)\n              (bn): BatchNorm2d(\n                (bn): BatchNorm2d(64, eps=1e-05, momentum=0.1, affine=True, track_running_stats=True)\n              )\n              (activation): ReLU(inplace)\n            )\n            (layer2): Conv2d(\n              (conv): Conv2d(64, 128, kernel_size=(1, 1), stride=(1, 1), bias=False)\n              (bn): BatchNorm2d(\n                (bn): BatchNorm2d(128, eps=1e-05, momentum=0.1, affine=True, track_running_stats=True)\n              )\n              (activation): ReLU(inplace)\n            )\n          )\n          (1): SharedMLP(\n            (layer0): Conv2d(\n              (conv): Conv2d(99, 64, kernel_size=(1, 1), stride=(1, 1), bias=False)\n              (bn): BatchNorm2d(\n                (bn): BatchNorm2d(64, eps=1e-05, momentum=0.1, affine=True, track_running_stats=True)\n              )\n              (activation): ReLU(inplace)\n            )\n            (layer1): Conv2d(\n              (conv): Conv2d(64, 96, kernel_size=(1, 1), stride=(1, 1), bias=False)\n              (bn): BatchNorm2d(\n                (bn): BatchNorm2d(96, eps=1e-05, momentum=0.1, affine=True, track_running_stats=True)\n              )\n              (activation): ReLU(inplace)\n            )\n            (layer2): Conv2d(\n              (conv): Conv2d(96, 128, kernel_size=(1, 1), stride=(1, 1), bias=False)\n              (bn): BatchNorm2d(\n                (bn): BatchNorm2d(128, eps=1e-05, momentum=0.1, affine=True, track_running_stats=True)\n              )\n              (activation): ReLU(inplace)\n            )\n          )\n        )\n      )\n      (2): PointnetSAModuleMSG(\n        (groupers): ModuleList(\n          (0): QueryAndGroup()\n          (1): QueryAndGroup()\n        )\n        (mlps): ModuleList(\n          (0): SharedMLP(\n            (layer0): Conv2d(\n              (conv): Conv2d(259, 128, kernel_size=(1, 1), stride=(1, 1), bias=False)\n              (bn): BatchNorm2d(\n                (bn): BatchNorm2d(128, eps=1e-05, momentum=0.1, affine=True, track_running_stats=True)\n              )\n              (activation): ReLU(inplace)\n            )\n            (layer1): Conv2d(\n              (conv): Conv2d(128, 196, kernel_size=(1, 1), stride=(1, 1), bias=False)\n              (bn): BatchNorm2d(\n                (bn): BatchNorm2d(196, eps=1e-05, momentum=0.1, affine=True, track_running_stats=True)\n              )\n              (activation): ReLU(inplace)\n            )\n            (layer2): Conv2d(\n              (conv): Conv2d(196, 256, kernel_size=(1, 1), stride=(1, 1), bias=False)\n              (bn): BatchNorm2d(\n                (bn): BatchNorm2d(256, eps=1e-05, momentum=0.1, affine=True, track_running_stats=True)\n              )\n              (activation): ReLU(inplace)\n            )\n          )\n          (1): SharedMLP(\n            (layer0): Conv2d(\n              (conv): Conv2d(259, 128, kernel_size=(1, 1), stride=(1, 1), bias=False)\n              (bn): BatchNorm2d(\n                (bn): BatchNorm2d(128, eps=1e-05, momentum=0.1, affine=True, track_running_stats=True)\n              )\n              (activation): ReLU(inplace)\n            )\n            (layer1): Conv2d(\n              (conv): Conv2d(128, 196, kernel_size=(1, 1), stride=(1, 1), bias=False)\n              (bn): BatchNorm2d(\n                (bn): BatchNorm2d(196, eps=1e-05, momentum=0.1, affine=True, track_running_stats=True)\n              )\n              (activation): ReLU(inplace)\n            )\n            (layer2): Conv2d(\n              (conv): Conv2d(196, 256, kernel_size=(1, 1), stride=(1, 1), bias=False)\n              (bn): BatchNorm2d(\n                (bn): BatchNorm2d(256, eps=1e-05, momentum=0.1, affine=True, track_running_stats=True)\n              )\n              (activation): ReLU(inplace)\n            )\n          )\n        )\n      )\n      (3): PointnetSAModuleMSG(\n        (groupers): ModuleList(\n          (0): QueryAndGroup()\n          (1): QueryAndGroup()\n        )\n        (mlps): ModuleList(\n          (0): SharedMLP(\n            (layer0): Conv2d(\n              (conv): Conv2d(515, 256, kernel_size=(1, 1), stride=(1, 1), bias=False)\n              (bn): BatchNorm2d(\n                (bn): BatchNorm2d(256, eps=1e-05, momentum=0.1, affine=True, track_running_stats=True)\n              )\n              (activation): ReLU(inplace)\n            )\n            (layer1): Conv2d(\n              (conv): Conv2d(256, 256, kernel_size=(1, 1), stride=(1, 1), bias=False)\n              (bn): BatchNorm2d(\n                (bn): BatchNorm2d(256, eps=1e-05, momentum=0.1, affine=True, track_running_stats=True)\n              )\n              (activation): ReLU(inplace)\n            )\n            (layer2): Conv2d(\n              (conv): Conv2d(256, 512, kernel_size=(1, 1), stride=(1, 1), bias=False)\n              (bn): BatchNorm2d(\n                (bn): BatchNorm2d(512, eps=1e-05, momentum=0.1, affine=True, track_running_stats=True)\n              )\n              (activation): ReLU(inplace)\n            )\n          )\n          (1): SharedMLP(\n            (layer0): Conv2d(\n              (conv): Conv2d(515, 256, kernel_size=(1, 1), stride=(1, 1), bias=False)\n              (bn): BatchNorm2d(\n                (bn): BatchNorm2d(256, eps=1e-05, momentum=0.1, affine=True, track_running_stats=True)\n              )\n              (activation): ReLU(inplace)\n            )\n            (layer1): Conv2d(\n              (conv): Conv2d(256, 384, kernel_size=(1, 1), stride=(1, 1), bias=False)\n              (bn): BatchNorm2d(\n                (bn): BatchNorm2d(384, eps=1e-05, momentum=0.1, affine=True, track_running_stats=True)\n              )\n              (activation): ReLU(inplace)\n            )\n            (layer2): Conv2d(\n              (conv): Conv2d(384, 512, kernel_size=(1, 1), stride=(1, 1), bias=False)\n              (bn): BatchNorm2d(\n                (bn): BatchNorm2d(512, eps=1e-05, momentum=0.1, affine=True, track_running_stats=True)\n              )\n              (activation): ReLU(inplace)\n            )\n          )\n        )\n      )\n    )\n    (FP_modules): ModuleList(\n      (0): PointnetFPModule(\n        (mlp): SharedMLP(\n          (layer0): Conv2d(\n            (conv): Conv2d(256, 128, kernel_size=(1, 1), stride=(1, 1), bias=False)\n            (bn): BatchNorm2d(\n              (bn): BatchNorm2d(128, eps=1e-05, momentum=0.1, affine=True, track_running_stats=True)\n            )\n            (activation): ReLU(inplace)\n          )\n          (layer1): Conv2d(\n            (conv): Conv2d(128, 128, kernel_size=(1, 1), stride=(1, 1), bias=False)\n            (bn): BatchNorm2d(\n              (bn): BatchNorm2d(128, eps=1e-05, momentum=0.1, affine=True, track_running_stats=True)\n            )\n            (activation): ReLU(inplace)\n          )\n        )\n      )\n      (1): PointnetFPModule(\n        (mlp): SharedMLP(\n          (layer0): Conv2d(\n            (conv): Conv2d(608, 256, kernel_size=(1, 1), stride=(1, 1), bias=False)\n            (bn): BatchNorm2d(\n              (bn): BatchNorm2d(256, eps=1e-05, momentum=0.1, affine=True, track_running_stats=True)\n            )\n            (activation): ReLU(inplace)\n          )\n          (layer1): Conv2d(\n            (conv): Conv2d(256, 256, kernel_size=(1, 1), stride=(1, 1), bias=False)\n            (bn): BatchNorm2d(\n              (bn): BatchNorm2d(256, eps=1e-05, momentum=0.1, affine=True, track_running_stats=True)\n            )\n            (activation): ReLU(inplace)\n          )\n        )\n      )\n      (2): PointnetFPModule(\n        (mlp): SharedMLP(\n          (layer0): Conv2d(\n            (conv): Conv2d(768, 512, kernel_size=(1, 1), stride=(1, 1), bias=False)\n            (bn): BatchNorm2d(\n              (bn): BatchNorm2d(512, eps=1e-05, momentum=0.1, affine=True, track_running_stats=True)\n            )\n            (activation): ReLU(inplace)\n          )\n          (layer1): Conv2d(\n            (conv): Conv2d(512, 512, kernel_size=(1, 1), stride=(1, 1), bias=False)\n            (bn): BatchNorm2d(\n              (bn): BatchNorm2d(512, eps=1e-05, momentum=0.1, affine=True, track_running_stats=True)\n            )\n            (activation): ReLU(inplace)\n          )\n        )\n      )\n      (3): PointnetFPModule(\n        (mlp): SharedMLP(\n          (layer0): Conv2d(\n            (conv): Conv2d(1536, 512, kernel_size=(1, 1), stride=(1, 1), bias=False)\n            (bn): BatchNorm2d(\n              (bn): BatchNorm2d(512, eps=1e-05, momentum=0.1, affine=True, track_running_stats=True)\n            )\n            (activation): ReLU(inplace)\n          )\n          (layer1): Conv2d(\n            (conv): Conv2d(512, 512, kernel_size=(1, 1), stride=(1, 1), bias=False)\n            (bn): BatchNorm2d(\n              (bn): BatchNorm2d(512, eps=1e-05, momentum=0.1, affine=True, track_running_stats=True)\n            )\n            (activation): ReLU(inplace)\n          )\n        )\n      )\n    )\n  )\n  (rpn_cls_layer): Sequential(\n    (0): Conv1d(\n      (conv): Conv1d(128, 128, kernel_size=(1,), stride=(1,), bias=False)\n      (bn): BatchNorm1d(\n        (bn): BatchNorm1d(128, eps=1e-05, momentum=0.1, affine=True, track_running_stats=True)\n      )\n      (activation): ReLU(inplace)\n    )\n    (1): Dropout(p=0.5)\n    (2): Conv1d(\n      (conv): Conv1d(128, 1, kernel_size=(1,), stride=(1,))\n    )\n  )\n  (rpn_reg_layer): Sequential(\n    (0): Conv1d(\n      (conv): Conv1d(128, 128, kernel_size=(1,), stride=(1,), bias=False)\n      (bn): BatchNorm1d(\n        (bn): BatchNorm1d(128, eps=1e-05, momentum=0.1, affine=True, track_running_stats=True)\n      )\n      (activation): ReLU(inplace)\n    )\n    (1): Dropout(p=0.5)\n    (2): Conv1d(\n      (conv): Conv1d(128, 76, kernel_size=(1,), stride=(1,))\n    )\n  )\n  (rpn_cls_loss_func): SigmoidFocalClassificationLoss()\n  (proposal_layer): ProposalLayer()\n)", "parameters": [["backbone_net.SA_modules.0.mlps.0.layer0.conv.weight", [16, 3, 1, 1]], ["backbone_net.SA_modules.0.mlps.0.layer0.bn.bn.weight", [16]], ["backbone_net.SA_modules.0.mlps.0.layer0.bn.bn.bias", [16]], ["backbone_net.SA_modules.0.mlps.0.l
…
